src/orb_slam3_ai/models/trained/quick_slam_model.pth (torch, 652449 bytes, 12 tensors)

feature_extractor.0.weight f4 [32, 3, 3, 3]
0.19007245 0.17666781 0.019328922 0.05355363 0.074070536 0.04004935 0.0002307809 -0.05362268
-0.03795276 0.19488823 -0.05697991 -0.15458722 0.07984729 0.024985759 -0.032117087 0.026060676
0.13215354 0.03543093 -0.021556819 0.019344043 0.008615715 -0.12224369 0.021931102 0.20099604
0.1752866 -0.123764046 0.19765492 -0.069779985 0.012318749 0.12195021 0.005334419 -0.14183985
-0.028414302 -0.09859463 0.15006265 0.20836595 -0.13570909 0.016036384 -0.0005102629 -0.02333354
-0.043366205 0.023941591 0.012174781 -0.013743505 0.12735257 0.0946119 0.17035435 -0.07697884
-0.010533486 0.039693184 -0.05824305 -0.15120006 -0.12001841 0.08776876 0.13573012 0.027625645
0.024078332 -0.10894267 -0.077120714 0.048439354 0.010773396 -0.037749328 0.1100673 -0.022138944
-0.18551841 -0.06310453 -0.17336541 0.17489754 -0.17441987 0.042437743 -0.124973394 -0.06966037
-0.10119902 -0.093881465 -0.017953435 -0.17282578 -0.060461175 0.015463281 0.10824524 0.026513401
-0.10447174 -0.14297758 -0.17392853 0.14279094 -0.15580247 -0.029810533 -0.01881396 0.000493846
-0.038550477 -0.12296722 0.05570283 -0.1630234 0.091542706 0.06267252 -0.10893386 0.061798476
-0.15110745 -0.121544346 -0.1602203 0.041059468 0.117022164 -0.17402828 0.026695399 -0.08922448
-0.15071625 0.18926969 0.1332518 0.03630661 0.1082707 0.12820634 -0.10230453 0.17035033
0.1269073 -0.043277662 -0.02488659 -0.04214521 -0.10709182 0.06771112 0.12912312 0.07486013
0.03957892 -0.16362438 0.16672716 -0.029353665 0.036988046 -0.08402217 -0.06112816 -0.11449952
0.066596 0.107271284 0.09899985 -0.109527774 0.15639105 -0.040035296 0.12528408 -0.15052232
0.1379108 -0.18011415 0.14538163 0.17109032 0.14949185 -0.07932783 0.0007801602 -0.06342916
-0.043451153 -0.18338834 -0.08250305 -0.12486451 0.0019413613 -0.010400292 -0.13329653 0.17699052
-0.038854092 0.0073393695 -0.0076889344 -0.09219212 -0.17126319 -0.09435526 -0.0016043457 -0.062600315
-0.10848057 -0.1689316 -0.14498398 -0.04230255 -0.11239192 -0.112320855 0.04963255 0.15160184
-0.15115044 -0.103987515 -0.1128354 -0.17116816 0.11825725 0.17354399 -0.036372527 0.18934175
-0.07420681 0.12746692 0.14856596 0.049251437 0.10271581 0.059857182 -0.016928645 -0.13221106
0.105349004 0.17571272 0.017272701 -0.057516377 0.037092432 0.011241402 -0.13796516 0.18711859
0.08143656 0.18233447 0.034169566 -0.015555977 0.21193081 0.016206218 0.04063371 -0.030641785
-0.16353697 0.19848652 0.09996475 0.069253474 -0.095656626 0.20682259 -0.03180807 0.14101051
0.01520148 0.06710995 -0.040346168 0.08704045 -0.10396288 0.10270381 -0.14219 -0.053180598
0.11157012 -0.047991455 0.060040563 0.11525011 0.06623262 0.0244325 -0.086579844 -0.09597908
0.14331073 0.12118096 -0.15156277 -0.114982314 -0.04154976 0.19701011 0.15435795 0.10057495
0.15322989 0.021020705 0.10270092 -0.14623526 -0.012802673 -0.0143483365 0.07230926 0.15488507
-0.057491772 -0.13592294 0.010825792 -0.10722024 0.11553744 -0.13478792 -0.0851376 0.07320775
-0.13662438 0.14434797 -0.1700862 -0.15598753 0.054571085 0.13883236 -0.1379502 0.08775884
00000000: 5aa2 423e 68e8 343e b057 9e3c 0d5b 5b3d
00000010: 4bb2 973d ca0a 243d c7fd 7139 75a3 5bbd
00000020: 5a74 1bbd c890 473e c463 69bd 1d4c 1ebe
00000030: fa86 a33d efae cc3c 358d 03bd 337d d53c
00000040: 4253 073e 0620 113d ed97 b0bc 6677 9e3c
00000050: ee28 0d3c e65a fabd dba8 b33c e8d1 4d3e
00000060: 557e 333e 0178 fdbd 0d66 4a3e cfe8 8ebd
00000070: 94d4 493c 08c1 f93d 5acc ae3b 773e 11be
00000080: 1cc5 e8bc fbeb c9bd 06aa 193e e25d 553e
00000090: 53f7 0abe bc5e 833c 2ac3 05ba fb25 bfbc
000000a0: c3a0 31bd 2821 c43c bc78 473c 702c 61bc
000000b0: b668 023e e2c3 c13d 5f71 2e3e 15a7 9dbd
000000c0: a494 2cbc 5295 223d 4490 6ebd 30d4 1abe
000000d0: 36cc f5bd 1cc0 b33d d6fc 0a3e 2d4f e23c
000000e0: ec3f c53c 561d dfbd 77f1 9dbd 5868 463d
000000f0: e682 303c 0a9f 1abd f76a e13d bb5c b5bc
00000100: 8af8 3dbe f33c 81bd b486 31be 5718 333e
00000110: 1f9b 32be 33d3 2d3d 0df2 ffbd 19aa 8ebd
00000120: 6f41 cfbd ed44 c0bd 1513 93bc 3ef9 30be
00000130: 23a6 77bd b459 7d3c aeaf dd3d a232 d93c
00000140: 48f5 d5bd b768 12be 521a 32be ca37 123e
00000150: af8a 1fbe 3835 f4bc bc1f 9abc 7275 013a
00000160: 1be7 1dbd 3dd6 fbbd a728 643d 9bef 26be
00000170: be7a bb3d 735a 803d b718 dfbd 6620 7d3d
00000180: e9bb 1abe 3eec f8bd ca10 24be f92d 283d
00000190: 51a9 ef3d 7834 32be 4fb0 da3c 53bb b6bd
000001a0: 5c55 1abe eacf 413e 2973 083e 3db6 143d
000001b0: 07bd dd3d 8648 033e 0a85 d1bd 5170 2e3e
000001c0: fdf3 013e eb43 31bd f6de cbbc 75a0 2cbd
000001d0: f552 dbbd 21ac 8a3d da38 043e 4550 993d
000001e0: 811d 223d 268d 27be 86ba 2a3e 1977 f0bc
000001f0: c780 173d d113 acbd 8661 7abd b97e eabd
00000200: 7c63 883d 0cb1 db3d 6fc0 ca3d 1950 e0bd
00000210: fa24 203e 0dfc 23bd 784a 003e 8622 1abe
00000220: 7d38 0d3e d86f 38be ecde 143e 4d32 2f3e
00000230: 6414 193e a176 a2bd aa83 4c3a 26e7 81bd
00000240: d6f9 31bd 27ca 3bbe 5cf7 a8bd f7b8 ffbd
00000250: 4775 fe3a fd65 2abc e37e 08be 013d 353e
00000260: 7825 1fbd 187f f03b 75f3 fbbb 39cf bcbd
00000270: 9e5f 2fbe 553d c1bd e948 d2ba 9834 80bd
00000280: 102b debd 68fc 2cbe ae76 14be 7045 2dbd
00000290: bc2d e6bd 7a08 e6bd 804b 4b3d 833d 1b3e
000002a0: 2ec7 1abe 68f7 d4bd 3f16 e7bd b546 2fbe
000002b0: db30 f23d 84b5 313e 5cfb 14bd cee2 413e
000002c0: bdf9 97bd b086 023e ad21 183e e0bb 493d
000002d0: ab5c d23d ce2c 753d f1ad 8abc 5662 07be
000002e0: 38c1 d73d 09ee 333e 7b7f 8d3c 4b96 6bbd
000002f0: 3cee 173d db2d 383c bd46 0dbe 049c 3f3e
00000300: 36c8 a63d e3b5 3a3e 63f5 0b3d 7fde 7ebc
00000310: 6404 593e e7c2 843c 886f 263d 7b04 fbbc
00000320: 3c76 27be 0d40 4b3e 52ba cc3d c4d4 8d3d
00000330: 9fe7 c3bd 4dc9 533e 2e49 02bd 0f65 103e
00000340: a10f 793c f170 893d 0642 25bd 4342 b23d
00000350: 7eea d4bd 6056 d23d 419a 11be e6d3 59bd
00000360: e07e e43d b092 44bd 18ed 753d 4008 ec3d
00000370: f8a4 873d ab26 c83c c650 b1bd ae90 c4bd
00000380: 0cc0 123e b92d f83d 4533 1bbe d97b ebbd
00000390: 1530 2abd 05bd 493e 0310 1e3e 3dfa cd3d
000003a0: 4ce8 1c3e 9d33 ac3c dc54 d23d b2be 15be
000003b0: 4dc2 51bc 4915 6bbc e116 943d 319a 1e3e
000003c0: 7e7c 6bbd 622f 0bbe aa5e 313c 4996 dbbd
000003d0: e59e ec3d d805 0abe 9f5c aebd f2ed 953d
000003e0: 43e7 0bbe f4cf 133e 142b 2ebe 32bb 1fbe
000003f0: ee85 5f3d 122a 0e3e d142 0dbe e8ba b33d

feature_extractor.0.bias f4 [32]
-0.11443212 0.19384453 0.16589724 0.025109591 0.0818284 -0.05806148 0.051831607 -0.12526335
0.12960058 -0.14675358 -0.045682915 -0.045245297 -0.0685235 0.06602577 0.18194947 0.14510562
-0.033588458 0.10575269 -0.16903496 0.08235152 0.15261029 -0.1922515 -0.16493633 -0.08118864
0.18152532 -0.09330687 0.13698038 0.11684509 -0.06644477 -0.07269392 -0.055719763 0.043858707
00000000: 635b eabd 2e7f 463e f7e0 293e a1b2 cd3c
00000010: a695 a73d e0d1 6dbd 614d 543d 0945 00be
00000020: 04b6 043e 9246 16be 021e 3bbd 2253 39bd
00000030: 0c56 8cbd 8538 873d f650 3a3e 9196 143e
00000040: 0d94 09bd de94 d83d 8017 2dbe eaa7 a83d
00000050: df45 1c3e 94dd 44be 12e5 28be 3b46 a6bd
00000060: c6e1 393e ac17 bfbd 9644 0c3e 7b4c ef3d
00000070: 3214 88bd 8de0 94bd 683a 64bd 30a5 333d

feature_extractor.2.weight f4 [64, 32, 3, 3]
-0.001436463 -0.030983709 -0.0018663186 0.0030893148 -0.03717279 0.015277972 0.030740991 -0.012717285
-0.00378995 0.008091872 0.027990993 0.00486199 0.036827974 0.0053281905 0.029351171 0.010720156
-0.03857025 0.045726415 0.029795665 -0.022132441 -0.029272946 0.040365104 0.02225582 -0.03122646
-0.026479103 -0.025815029 0.052860457 0.0073301517 -0.04430283 0.048974294 0.021973696 -0.043408424
0.039781123 0.0029574304 0.016601827 0.02027076 0.03283015 -0.02403436 -0.008383148 0.0145084625
0.048175618 0.012402434 0.024176022 -0.0050520655 -0.00027376486 -0.028060902 0.010796864 0.051327802
-0.026778387 0.05794289 -0.036205534 -0.017389804 0.05662727 0.0039980854 -0.014912581 -0.027031079
-0.010978067 -0.008687575 0.05055884 0.022335913 0.051621728 0.015081182 -0.013773787 -0.015388727
-0.012785415 -0.011759435 0.001004542 0.030042013 -0.0053953025 0.02496501 0.022109793 0.008529567
-0.026324416 0.04391408 0.050620064 -0.0049670553 0.0479987 0.011651131 -0.029281558 -0.028346762
-0.057661433 -0.018101031 0.055791408 0.021787189 0.056996286 0.028706718 0.02689285 -0.054968923
-0.037829902 -0.027757859 -0.0060235295 -0.03154342 -0.0020453515 -0.006564344 -0.04756677 -0.044073634
0.00061705796 0.028328309 0.047596745 0.010406914 0.043927047 0.058880918 -0.014349534 -0.05514389
0.055796962 -0.05676601 -0.005297255 -0.016991712 0.05477783 -0.0154768005 -0.00010141937 -0.043794572
-0.056065388 -0.04853018 0.0031910855 -0.016834097 -0.04280117 0.016856717 0.016042158 -0.055146925
0.021017425 0.018254993 -0.025593828 -0.036847886 -0.054722507 0.04581286 -0.010257082 -0.02386358
-0.033721678 -0.056658752 -0.00021659968 0.009972857 -0.032927178 0.026749657 0.0037854966 0.049249493
-0.011077751 -0.010086296 0.036721256 -0.041421264 -0.03467573 0.039080758 0.05221181 0.050519172
0.017717123 -0.0078401705 0.014258953 -0.02263668 0.012198085 0.043857504 -0.044410884 0.005096123
0.0051206313 -0.036133967 0.023833882 -0.039397363 -0.033249747 -0.021100188 0.034238588 -0.056385852
-0.026928872 0.04767516 -0.025552005 0.035784375 -0.0531664 -0.056071304 -0.055487726 -0.028669348
-0.05357831 -0.0045698355 0.053683832 0.03578028 0.026869178 0.027774135 -0.035021834 -0.03229111
0.057662517 0.03149621 -0.008765568 0.022592438 -0.021115094 -0.028903157 -0.018758614 -0.048134737
0.019319981 -0.05467138 0.044808563 0.051619355 -0.036827244 -0.0057274476 -0.046759497 0.0052707163
0.01136121 -0.029991964 -0.009832087 0.0413319 0.029249134 -0.046800613 -0.03317262 -0.048024725
-0.0154781705 -0.040788967 -0.033530332 0.057114046 0.032685835 -0.008799861 -0.057307098 0.03889163
0.042384963 -0.014416379 0.013735328 -0.050134625 -0.024948083 0.030388862 0.014970898 0.0015727939
0.043616656 0.055641714 -0.031796776 0.04133754 0.011021625 -0.03927238 0.007637269 -0.0123678595
-0.026484827 -0.05335579 -0.0026929658 -0.0052883127 0.016090613 0.017949542 0.031488333 -0.007745748
-0.020443827 0.0048861895 -0.05131164 -0.03690956 0.020142928 -0.0117465025 0.05382953 0.04844894
-0.03833019 -0.009277898 -0.010709908 -0.050477877 -0.0009042887 0.022296175 -0.037031345 -0.007339614
-0.058515124 0.007695242 0.0031032725 0.030133473 0.021592414 0.016226325 -0.021248328 -0.009936345
00000000: b347 bcba 8cd1 fdbc 439f f4ba 1a76 4a3b
00000010: 7f42 18bd 7650 7a3c 88d4 fb3c 295c 50bc
00000020: cf60 78bb c593 043c 5e4d e53c 5451 9f3b
00000030: eed8 163d 1a98 ae3b de71 f03c 98a3 2f3c
00000040: d7fb 1dbd 9f4b 3b3d 0a16 f43c 184f b5bc
00000050: d1cd efbc e155 253d d651 b63c a2ce ffbc
00000060: b4ea d8bc 0a7a d3bc 3584 583d c531 f03b
00000070: e276 35bd 4599 483d 2e02 b43c 08cd 31bd
00000080: 88f1 223d 73d1 413b 8e00 883c dd0e a63c
00000090: e878 063d b5e3 c4bc 7959 09bc e7b4 6d3c
000000a0: cc53 453d 9433 4b3c cb0c c63c cc8b a5bb
000000b0: 1988 8fb9 fadf e5bc 54e5 303c 1a3d 523d
000000c0: 595e dbbc 8655 6d3d 414c 14bd 1075 8ebc
000000d0: fff1 673d 5f02 833b e653 74bc 4870 ddbc
000000e0: 5add 33bc 5556 0ebc c916 4f3d cef9 b63c
000000f0: 4e71 533d 1017 773c 73ab 61bc 0021 7cbc
00000100: eb79 51bc a5aa 40bc d6aa 833a ab1a f63c
00000110: 14cb b0bb 6c83 cc3c 991f b53c 99bf 0b3c
00000120: 4da6 d7bc 40df 333d fc56 4f3d aec2 a2bb
00000130: 499a 443d 63e4 3e3c e1df efbc 7837 e8bc
00000140: 652e 6cbd 9d48 94bc 8885 643d 0c7b b23c
00000150: f074 693d 5a2a eb3c 654e dc3c 1827 61bd
00000160: 87f3 1abd 7364 e3bc 0761 c5bb ac33 01bd
00000170: 4e0b 06bb b519 d7bb 60d5 42bd 8e86 34bd
00000180: 0fc2 213a c510 e83c cef4 423d c381 2a3c
00000190: d9ec 333d 1e2d 713d 4f1a 6bbc 8fde 61bd
000001a0: 5b8b 643d 7a83 68bd 9894 adbb 3432 8bbc
000001b0: b85e 603d 6892 7dbc 1cb1 d4b8 f061 33bd
000001c0: d2a4 65bd 95c7 46bd 8821 513b a9e7 89bc
000001d0: 4850 2fbd 1917 8a3c d86a 833c bee1 61bd
000001e0: bc2c ac3c 7f8b 953c 26aa d1bc cfed 16bd
000001f0: b524 60bd 44a6 3b3d 520d 28bc 8e7d c3bc
00000200: be1f 0abd 0213 68bd 091f 63b9 3265 233c
00000210: a6de 06bd 1922 db3c 1816 783b d6b9 493d
00000220: 757f 35bc fe40 25bc 0769 163d 58a9 29bd
00000230: 2308 0ebd 2513 203d 0ddc 553d 31ed 4e3d
00000240: 8023 913c 0f74 00bc 629e 693c 8f70 b9bc
00000250: 7ada 473c eda3 333d 30e8 35bd 61fd a63b
00000260: f8ca a73b 3601 14bd 463f c33c 215f 21bd
00000270: e330 08bd 4dda acbc c33d 0c3d daf4 66bd
00000280: f099 dcbc 0747 433d 7052 d1bc a392 123d
00000290: 03c5 59bd 06ab 65bd 1947 63bd fbdb eabc
000002a0: ee74 5bbd 8fbe 95bb 94e3 5b3d 588e 123d
000002b0: c01c dc3c 9586 e33c 0e73 0fbd af43 04bd
000002c0: 882f 6c3d 2b02 013d 759d 0fbc c713 b93c
000002d0: 90f9 acbc 50c6 ecbc aaab 99bc ee28 45bd
000002e0: f044 9e3c 19ef 5fbd 2f89 373d d16e 533d
000002f0: 2ad8 16bd 50ad bbbb e386 3fbd f9b5 ac3b
00000300: 5e24 3a3c b5b1 f5bc c316 21bc a34b 293d
00000310: e19b ef3c 00b2 3fbd 03e0 07bd 93b5 44bd
00000320: 2798 7dbc 5512 27bd 1a57 09bd 6bf0 693d
00000330: 95e1 053d 4b2d 10bc d9ba 6abd d44c 1f3d
00000340: db9b 2d3d ad32 6cbc 240a 613c f759 4dbd
00000350: ec5f ccbc 10f2 f83c 7f48 753c 3526 ce3a
00000360: 61a7 323d 91e8 633d 563d 02bd 8d51 293d
00000370: 0c94 343c 13dc 20bd 0e42 fa3b 90a2 4abc
00000380: b5f6 d8bc 9a8b 5abd 787c 30bb 9549 adbb
00000390: 76d0 833c eb0a 933c e9f9 003d 0bd0 fdbb
000003a0: d079 a7bc 541c a03b 272c 52bd 7b2e 17bd
000003b0: c802 a53c 6774 40bc 5a7c 5c3d 6572 463d
000003c0: 1e00 1dbd 5302 18bc 9c78 2fbc e4c1 4ebd
000003d0: ca0d 6dba 78a6 b63c 2eae 17bd 2581 f0bb
000003e0: 8ead 6fbd 5e28 fc3b 4660 4b3b 79da f63c
000003f0: 93e2 b03c 12ed 843c f910 aebc 0dcc 22bc

feature_extractor.2.bias f4 [64]
0.0039580385 0.038746893 0.06357342 0.04883166 -0.02951101 0.0497645 0.053195707 -0.0049710125
-0.03353796 -0.055251632 -0.00057939044 0.03146005 0.019801425 0.02038712 0.03523002 -0.015488904
0.02602037 -0.042275004 -0.03717738 0.057888497 -0.040610865 0.047865115 -0.042003263 -0.023939919
0.030348668 0.06691125 -0.014171708 -0.024965798 -0.0058378815 0.0789279 -0.011403097 0.070963584
0.07635727 0.027163727 0.03100372 0.04003541 -0.040763382 0.07778611 -0.00024222794 0.0061136484
0.030138558 -0.037462115 -0.033728987 0.00503239 -0.011725411 0.059429944 -0.007696236 0.066108026
-0.05484398 0.037269082 0.05138293 0.025792193 -0.0013627539 0.0014780198 -0.017135715 -0.008698003
0.054233473 0.053091004 0.058680363 0.02740304 0.099616714 -0.024971362 -0.052371155 0.06404687
00000000: 6fb2 813b 10b5 1e3d c832 823d b503 483d
00000010: 13c1 f1bc dcd5 4b3d bee3 593d e0e3 a2bb
00000020: 1a5f 09bd 894f 62bd 3ce2 17ba 41dc 003d
00000030: 9936 a23c e402 a73c 5a4d 103d 2cc5 7dbc
00000040: ac28 d53c 8e28 2dbd 4f47 18bd 7d1c 6d3d
00000050: 9457 26bd 360e 443d 9d0b 2cbd a61d c4bc
00000060: c59d f83c c408 893d 7430 68bc 1385 ccbc
00000070: b34b bfbb f3a4 a13d 0ed4 3abc 5b55 913d
00000080: 3361 9c3d 7786 de3c 83fb fd3c 2cfc 233d
00000090: 81f7 26bd 534e 9f3d 91fe 7db9 0055 c83b
000000a0: 23e5 f63c e071 19bd 6827 0abd bfe6 a43b
000000b0: f01b 40bc d06c 733d b530 fcbb a563 873d
000000c0: 15a4 60bd 77a7 183d e876 523d 264a d33c
000000d0: 6f9e b2ba 1dba c13a 3360 8cbc 1282 0ebc
000000e0: eb23 5e3d f475 593d d25a 703d 577c e03c
000000f0: d903 cc3d be90 ccbc 2383 56bd 012b 833d

feature_extractor.6.weight f4 [128, 1024]
0.023288045 -0.010799453 0.0022233315 0.009671781 -0.0025544576 0.02424154 -0.0006467551 -0.016259458
0.02602588 0.016864285 -0.01924343 0.000665009 0.027482718 0.008809924 0.015638284 -0.012726996
0.022795249 -0.029891115 0.02570125 -0.011599857 -0.0047876723 0.0134540275 0.012585837 -0.013258792
0.019163594 -0.014155414 0.029284254 0.015330441 -0.017037515 0.026685983 0.030009061 0.021347336
-0.03709495 -0.020532418 -0.034512166 0.015423396 0.021528251 -0.019329213 0.016697668 -0.036712755
0.011722971 0.016454177 0.013499974 -0.039597817 0.015952026 -0.0023453778 -0.03168527 -0.02855172
0.014065832 0.0011772647 -0.00974882 -0.018426789 0.006277124 -0.021296844 -0.03168841 -0.030619439
0.007424047 -0.013716949 0.0035411445 0.01663394 -0.030644003 0.00266589 0.0005111003 0.004954421
0.0074497233 -0.0011971527 -0.018739896 -0.02838473 0.0132201 0.017431028 -0.03332819 -0.0051040524
0.015730424 -0.031294547 -0.035462677 -0.02213424 -0.007681657 -0.035107963 -0.03687566 -0.025040379
0.016438764 -0.0016388773 0.018382832 -0.014816199 -0.004417334 0.007596135 -0.030890994 -0.0068428866
-0.012854443 -0.011473464 0.0069515677 -0.019382454 0.018164326 -0.034358807 -0.008953691 -0.03697387
-0.031294335 0.0101976525 -0.035132118 0.010023547 -0.013399357 0.009880059 -0.035095196 -0.019113269
-0.00015422967 -0.0068873847 -0.028834546 -0.024548912 -0.04030871 0.008638049 -0.012912647 -0.03920928
0.01245896 -0.021940358 0.0053528985 -0.030846026 -0.040317107 0.011437014 0.018013492 -0.0029764425
-0.0055192905 0.010385377 0.021480378 -0.025171112 -0.028809031 -0.013351611 -0.011254908 -0.021704927
0.02580038 -0.014992237 0.012399852 0.009955604 0.003938731 -0.028782088 -0.020102352 0.020621896
7.4878335e-07 0.017667402 -0.012910552 -0.012761246 -0.010576528 0.007235769 0.0020513162 -0.0021949373
-0.0151641965 -0.0064595453 -0.027567364 0.02496488 -0.029521603 0.015064839 0.029892448 0.00014870241
-0.01559807 0.005268093 0.008148525 -0.012996044 0.0036131963 -0.02592244 0.011152346 -0.010972485
-0.0014241004 -0.0070832856 0.019393649 0.007520832 -0.003324018 -0.00035772845 0.0021514818 0.0096679665
0.004073172 0.0229356 -0.012965329 0.023974087 -0.013717623 0.019788772 0.022356171 0.0064613223
-0.008906132 -0.037217453 0.021646759 0.01473511 0.018997755 -0.024420664 -0.037757535 0.0005041763
-0.04006522 0.020984799 0.010238714 -0.008509841 -0.0083415825 0.020556428 0.008919705 -0.035399403
0.0035282162 -0.029122254 -0.025196275 -0.034627844 -0.0033703118 -0.025537716 -0.029978665 0.020196779
0.0016819381 -0.00345594 0.018003667 -0.017300729 -0.0060649808 0.014798054 -0.0209618 0.011989888
-0.002499963 0.004155013 -0.022125743 -0.035498578 -0.020742951 -0.026207663 -0.02045355 -0.016659666
-0.011325897 -0.035439573 -0.036938176 -0.005490967 -0.028012332 -0.013842079 -0.035294056 -0.012048352
-0.028104758 -0.0035080153 0.006931796 0.006047465 0.0006747489 -0.01543247 -0.019330205 0.013220305
0.0019515929 -0.018845638 0.02145686 -0.033638284 0.01907167 -0.027338872 -0.019277487 3.787038e-05
0.01926643 0.025348 -0.019672945 0.00866387 -0.02709138 0.017619144 -0.012592424 0.023438737
0.003052421 0.019565232 0.021841321 0.013908409 0.017569467 0.029939424 0.028800037 0.017245453
00000000: 92c6 be3c 30f0 30bc 50b5 113b 6476 1e3c
00000010: b068 27bb 3296 c63c 008b 29ba 8e32 85bc
00000020: 3a34 d53c f826 8a3c 66a4 9dbc 0054 2e3a
00000030: 7023 e13c 8057 103c dc1b 803c e484 50bc
00000040: 1abd ba3c 36de f4bc 6e8b d23c 540d 3ebc
00000050: e8e1 9cbb 486e 5c3c d434 4e3c 683b 59bc
00000060: f8fc 9c3c 1cec 67bc 88e5 ef3c 882c 7b3c
00000070: 4292 8bbc 909c da3c 90d5 f53c 9ce0 ae3c
00000080: e0f0 17bd 9a33 a8bc a15c 0dbd 69b2 7c3c
00000090: 045c b03c 4c58 9ebc 8cc9 883c 1d60 16bd
000000a0: b411 403c e9ca 863c ff2e 5d3c 5231 22bd
000000b0: d3ad 823c e9b4 19bb 6ac8 01bd 4ce5 e9bc
000000c0: 6074 663c 734e 9a3a 84b9 1fbc c7f3 96bc
000000d0: 55b0 cd3b b876 aebc b5cb 01bd 9ed5 fabc
000000e0: 6c45 f33b 0ebd 60bc 8c12 683b e743 883c
000000f0: 2209 fbbc 36b6 2e3b 5cfb 053a b258 a23b
00000100: cf1c f43b c7e9 9cba 6984 99bc 1887 e8bc
00000110: 1e99 583c 84cb 8e3c 2483 08bd e53f a7bb
00000120: 17dd 803c b62e 00bd 5041 11bd de52 b5bc
00000130: 69b6 fbbb 5ecd 0fbd ef0a 17bd 7b21 cdbc
00000140: 96aa 863c 99cf d6ba 9897 963c a5bf 72bc
00000150: 49bf 90bb 00e9 f83b 1c0f fdbc 4b3a e0bb
00000160: 719b 52bc 32fb 3bbc fac9 e33b f4c7 9ebc
00000170: 5acd 943c d2bb 0cbd 81b2 12bc ea71 17bd
00000180: 7d2e 00bd 0e14 273c b2e6 0fbd ce39 243c
00000190: fa88 5bbc f9df 213c fbbf 0fbd 6e93 9cbc
000001a0: b6b8 21b9 92af e1bb 6d36 ecbc cd1a c9bc
000001b0: bf1a 25bd 9a86 0d3c 918f 53bc e999 20bd
000001c0: aa20 4c3c 44bc b3bc 5e67 af3b ceb0 fcbc
000001d0: 8d23 25bd 5062 3b3c 0891 933c 6b10 43bb
000001e0: 2adb b4bb 6e27 2a3c 9ef7 af3c a633 cebc
000001f0: eb00 ecbc b7c0 5abc 8166 38bc 88ce b1bc
00000200: 525b d33c 00a2 75bc c028 4b3c d41c 233c
00000210: 7810 813b 6ac8 ebbc b0ad a4bc 40ef a83c
00000220: 0000 4935 3abb 903c c886 53bc 8c14 51bc
00000230: 2c49 2dbc 081a ed3b 606f 063b f0d8 0fbb
00000240: 4073 78bc 98aa d3bb f4d4 e1bc 2683 cc3c
00000250: 4ad7 f1bc 84d2 763c 02e1 f43c 00ed 1b39
00000260: 0c8f 7fbc f89f ac3b 6481 053c 5ced 54bc
00000270: 60cb 6c3b 4c5b d4bc 54b8 363c f0c5 33bc
00000280: e1a8 baba e81a e8bb 6edf 9e3c 5071 f63b
00000290: c5d7 59bb 808d bbb9 e0ff 0c3b 6466 1e3c
000002a0: 3e78 853b 70e3 bb3c 886c 54bc 4e65 c43c
000002b0: e2bf 60bc 101c a23c 4a24 b73c 80b9 d33b
000002c0: 06eb 11bc 5471 18bd 8b54 b13c 886b 713c
000002d0: 2ea1 9b3c d80d c8bc a5a7 1abd b32a 043a
000002e0: 6e1b 24bd 50e8 ab3c 47c0 273c dc6c 0bbc
000002f0: 22ab 08bc f465 a83c f423 123c f7fe 10bd
00000300: a539 673b cb91 eebc 6b68 cebc edd5 0dbd
00000310: 73e0 5cbb 7934 d1bc d195 f5bc b773 a53c
00000320: 7a74 dc3a 0d7d 62bb 6d7c 933c 42ba 8dbc
00000330: bfbc c6bb 8973 723c 15b8 abbc 3c71 443c
00000340: 6bd6 23bb c626 883b 0c41 b5bc f566 11bd
00000350: 1fed a9bc 74b1 d6bc 348e a7bc da79 88bc
00000360: 4190 39bc 1629 11bd 7c4c 17bd 92ed b3bb
00000370: 1e7a e5bc e3c9 62bc 8090 10bd 7366 45bc
00000380: f33b e6bc bbe6 65bb 1f24 e33b d029 c63b
00000390: a2e1 303a 78d8 7cbc 615a 9ebc fa99 583c
000003a0: 97cc ff3a 2b62 9abc 4cc6 af3c 4cc8 09bd
000003b0: 313c 9c3c c5f5 dfbc d2eb 9dbc 03d7 1e38
000003c0: a2d4 9d3c 9ca6 cf3c 2829 a1bc e8f2 0d3c
000003d0: beee ddbc 0656 903c 7450 4ebc 9802 c03c
000003e0: 200b 483b 4447 a03c 92ec b23c 18e0 633c
000003f0: d8ed 8f3c 8643 f53c 0eee eb3c 5646 8d3c

feature_extractor.6.bias f4 [128]
-0.0131874755 0.012158042 -0.014008436 0.011376596 0.009391312 -0.0097448975 -0.01350069 -0.0324178
0.05053665 0.007117125 -0.026665132 -0.011413235 -0.010553725 0.036832854 0.047689945 0.0330725
-0.015513163 0.0038215744 -0.023607004 -0.01558739 0.015603204 -0.002830213 0.029991526 0.010299017
0.0017470904 0.009557358 0.010632429 -0.039986446 0.026457116 -0.03532329 -0.016763235 -0.0024870522
-0.021229792 -0.011384759 0.013499763 -0.015529528 -0.014247555 -0.02852715 0.008801518 0.045714736
-0.00723847 0.0027284569 -0.020984013 -0.020596039 0.030339874 -0.013779884 0.020819683 0.008905901
-0.009294409 -0.004064288 0.006695658 0.0438641 -0.00061017275 -0.01640886 0.030222557 -0.034650777
0.00903738 0.031537615 -0.007086885 -0.02216164 -0.0049592536 -0.013497089 0.04323026 -0.018005934
0.024783727 0.016509414 0.012692846 0.025969658 0.028576722 0.01347002 -0.020040888 -0.03370361
-0.013138242 -0.006102644 0.029954307 -0.032146063 0.03022214 -0.0060944343 -0.020361789 -0.023650922
0.044874836 0.033101626 0.021184407 -0.007945552 0.025846124 -0.033053026 0.00757988 -0.029627435
0.003951146 -0.007682521 -0.00811203 -0.017116122 -0.011648447 -0.01079898 -0.028173218 0.029593915
0.019366585 -0.019886723 0.016161516 -0.022529516 0.013058523 -0.030093476 0.0030033775 -0.029252395
-0.023481514 0.032041926 0.02517638 0.042815495 -0.006330481 0.015538322 0.004856712 0.020518143
-0.0001502892 0.042237036 0.0040939366 0.018394997 0.015708901 0.030415723 -0.005234538 0.031108703
0.009143636 -0.004126288 0.013296237 0.01364431 0.0016223369 0.042164512 -8.9023575e-05 -0.012766041
00000000: 4810 58bc 8632 473c a483 65bc e764 3a3c
00000010: 04de 193c 10a9 1fbc 0032 5dbc 87c8 04bd
00000020: 85ff 4e3d c636 e93b d670 dabc 94fe 3abc
00000030: 88e9 2cbc 0cde 163d 8856 433d 0877 073d
00000040: ec2a 7ebc 6173 7a3b 7a63 c1bc 4162 7fbc
00000050: 95a4 7f3c 187b 39bb cab0 f53c 35bd 283c
00000060: a0fe e43a 7796 1c3c a433 2e3c d4c8 23bd
00000070: 98bc d83c 27af 10bd 0d53 89bc d0fd 22bb
00000080: 1aea adbc 2487 3abc 1c2e 5d3c 906f 7ebc
00000090: 946e 69bc c5b1 e9bc 3e34 103c 603f 3b3d
000000a0: b030 edbb e9cf 323b aae6 abbc 06b9 a8bc
000000b0: 548b f83c 06c5 61bc 0a8e aa3c 0eea 113c
000000c0: 9447 18bc b82d 85bb 4067 db3b d8aa 333d
000000d0: 00f4 1fba e06b 86bc 4c95 f73c f9ed 0dbd
000000e0: 8511 143c 962d 013d 1a39 e8bb 548c b5bc
000000f0: 3c81 a2bb e522 5dbc 3712 313d 2e81 93bc
00000100: 3e07 cb3c c03e 873c a8f5 4f3c 52be d43c
00000110: bb19 ea3c 5cb1 5c3c ca2c a4bc cc0c 0abd
00000120: c841 57bc b0f8 c7bb bc62 f53c 97ab 03bd
00000130: 6c94 f73c d2b3 c7bb c4cd a6bc 94bf c1bc
00000140: adce 373d 9295 073d ec8a ad3c 0f2e 02bc
00000150: 40bb d33c 9c62 07bd a460 f83b 3cb5 f2bc
00000160: 9d78 813b a8bd fbbb 52e8 04bc 1c37 8cbc
00000170: 21d9 3ebc 34ee 30bc 85cb e6bc f06e f23c
00000180: aca6 9e3c 7be9 a2bc 2865 843c d28f b8bc
00000190: 6af3 553c 9886 f6bc 50d4 443b b8a2 efbc
000001a0: 4e5c c0bc 653e 033d b23e ce3c 4d5f 2f3d
000001b0: ec6f cfbb 7294 7e3c 0e25 9f3b aa15 a83c
000001c0: f396 1db9 be00 2d3d 6e26 863b 1bb1 963c
000001d0: f4af 803c 652a f93c 7d86 abbb aed7 fe3c
000001e0: 30cf 153c d035 87bb 76d8 593c 628c 5f3c
000001f0: 98a4 d43a b2b4 2c3d 2bb2 bab8 a828 51bc

param_predictor.0.weight f4 [64, 136]
0.05211063 0.037601247 -0.048612807 0.01476306 0.059215643 0.033692695 0.07692909 -0.083628915
-0.07686953 -0.07405712 -0.06322823 -0.028420784 -0.04061101 0.025313986 0.011140958 -0.019527158
-0.00036814937 0.05496667 -0.042299192 -0.051070284 -0.021335114 -0.020775042 0.062246446 -0.070896976
0.056724604 0.044252377 0.021416081 -0.06491024 0.005705646 0.045520097 -0.018725377 0.06251686
-0.012828465 -0.09328832 0.01770525 -0.048423097 -0.03800153 0.080698006 -0.04580961 0.02447866
0.06767924 -0.06179553 0.0037735438 0.0055214944 -0.045539714 -0.016566275 -0.055028398 0.026060937
0.007461048 0.06658768 -0.023059398 -0.00044099987 0.007541476 0.021354748 0.07788584 0.061097644
-0.007253028 0.06371557 -0.08208367 0.07798524 -0.06366368 0.0035013289 -0.068591245 0.0017537771
0.07505175 -0.028876618 -0.01133587 -0.009761678 -0.09165547 -0.026404032 0.040803686 -0.045499265
-0.034777865 -0.06603796 -0.029704133 -0.06237226 0.06637101 -0.027629714 -0.00723517 0.03945075
0.0074071507 -0.09052298 -0.07950194 0.037647203 0.055747893 0.00516922 0.05157292 -0.042584337
0.023015205 -0.03268312 0.07683696 0.052437216 0.064221844 0.006883662 -0.04453299 0.03202617
0.015849048 0.0101389345 -0.06314004 0.0053017293 0.05721897 -0.06878212 0.029986156 -0.022127356
0.05867928 0.045875512 0.05318522 0.038278487 0.07095255 -0.073282495 -0.013089711 0.029150786
-0.025125185 -0.032119606 0.03851236 -0.042199597 -0.028567573 -0.061643083 -0.048099034 -0.092067204
0.07662993 0.029034244 0.022298189 0.04359822 0.084320925 0.014373806 0.017066613 0.0023308357
-0.0821933 -0.055894647 -0.012823503 -0.08224751 -0.03094329 -0.068090595 -0.032368757 -0.078942105
-0.09048401 -0.005588037 -0.07167365 0.014041659 -0.059261702 -0.037406553 0.04243679 0.0594344
0.025835901 -0.04230749 -0.028090457 0.042395905 -0.077421844 -0.017767299 0.07902783 -0.0661741
-0.006005542 0.051946025 0.015438241 -0.07544763 -0.063347645 0.07531955 -0.02432282 0.052235045
0.077666655 0.09925184 -0.041551456 0.038522035 0.08206919 0.035002988 -0.03438009 0.08342177
-0.07389495 -0.01245775 -0.045932602 0.046744183 0.013365596 -0.07668046 -0.01291767 0.08832369
-0.07692429 -0.04261882 0.012148706 -0.023721505 0.06319183 0.007822426 -0.053267203 -0.0030369933
-0.077054694 0.041556243 -0.014117596 -0.041643266 -0.040884964 0.07234088 0.055568792 -0.049063917
-0.070214845 -0.05781429 0.013882466 0.0408194 0.020392394 -0.008793403 -0.021224039 -5.315498e-05
-0.0020793432 0.011179822 0.0871657 -0.041604776 0.013773527 -0.041283175 0.08111533 -0.006323932
-0.030932695 -0.0024179195 0.015714481 -0.032712527 0.06835409 -0.023537586 0.030391188 0.015088486
0.009820517 0.016704366 0.08743255 -0.028925706 -0.07509601 0.07560046 -0.02230316 0.017932408
0.037313994 -0.07989152 -0.051713448 0.054106742 0.00870579 -0.04354779 -0.014874155 0.10216621
0.029218558 -0.04123272 -0.035739664 -0.06786343 0.046603896 -0.018381085 0.035256658 0.027898261
-0.08269197 0.10097307 -0.030664047 -0.016913444 -0.0056539634 0.01625635 -0.028436583 -0.0072269924
0.027105104 -0.044789143 0.007736182 -0.033763073 -0.0573269 -0.058236435 0.061172932 0.06068634
00000000: f571 553d c403 1a3d 391e 47bd c3e0 713c
00000010: 1a8c 723d 5a01 0a3d 008d 9d3d a345 abbd
00000020: c66d 9dbd 42ab 97bd cd7d 81bd b4d2 e8bc
00000030: bb57 26bd 475f cf3c 9188 363c 6bf7 9fbc
00000040: 2c04 c1b9 bb24 613d eb41 2dbd 132f 51bd
00000050: fac6 aebc 6c30 aabc 21f6 7e3d 6f32 91bd
00000060: 0f58 683d fb41 353d c770 af3c a9ef 84bd
00000070: 6df6 ba3b 4873 3a3d f665 99bc d708 803d
00000080: 7b2e 52bc f20d bfbd 9a0a 913c 4c57 46bd
00000090: 7ea7 1bbd ff44 a53d dca2 3bbd 7987 c83c
000000a0: 6a9b 8a3d 4f1d 7dbd 8f4d 773b a7ed b43b
000000b0: da87 3abd ffb5 87bc 7565 61bd bf7d d53c
000000c0: cf7b f43b 1f5f 883d 10e7 bcbc 0036 e7b9
000000d0: 7c1e f73b 27f0 ae3c 9c82 9f3d 8641 7a3d
000000e0: cfaa edbb 4f7d 823d 7c1b a8bd bab6 9f3d
000000f0: 1a62 82bd 8d76 653b 9179 8cbd ffde e53a
00000100: bbb4 993d a88e ecbc 16ba 39bc 72ef 1fbc
00000110: ddb5 bbbd 454d d8bc c421 273d 705d 3abd
00000120: 3c73 0ebd e93e 87bd 1556 f3bc 0e7a 7fbd
00000130: 86ed 873d b657 e2bc 0115 edbb 1c97 213d
00000140: afb7 f23b 1d64 b9bd ead1 a2bd f433 1a3d
00000150: e757 643d 8f62 a93b 203e 533d ea6c 2ebd
00000160: 628a bc3c bcde 05bd b25c 9d3d 68c8 563d
00000170: be86 833d 5890 e13b 3968 36bd e02d 033d
00000180: ddd5 813c c61d 263c 914f 81bd 21ba ad3b
00000190: 705e 6a3d a4dd 8cbd 87a5 f53c 6e44 b5bc
000001a0: af59 703d f6e7 3b3d bfd8 593d e7c9 1c3d
000001b0: 924f 913d 2215 96bd 3a76 56bc a1cd ee3c
000001c0: 55d3 cdbc d98f 03bd 23bf 1d3d 7cd9 2cbd
000001d0: 8b06 eabc 757d 7cbd 7e03 45bd bb8d bcbd
000001e0: 27f0 9c3d 39d9 ed3c b1aa b63c 0c94 323d
000001f0: 73b0 ac3d 1d80 6b3c 48cf 8b3c efc0 183b
00000200: f654 a8bd c9f1 64bd ac19 52bc 6271 a8bd
00000210: c87c fdbc 1573 8bbd 1a95 04bd 66ac a1bd
00000220: ae4f b9bd da1b b7bb a2c9 92bd fd0e 663c
00000230: 66bc 72bd 9d37 19bd 33d2 2d3d 7c71 733d
00000240: d0a5 d33c 9e4a 2dbd f51d e6bc 54a7 2d3d
00000250: 588f 9ebd ba8c 91bc 58d9 a13d 4986 87bd
00000260: 23ca c4bb 5bc5 543d adf0 7c3c 4984 9abd
00000270: 69bc 81bd 2341 9a3d a740 c7bc 6af4 553d
00000280: b20f 9f3d 8c44 cb3d dc31 2abd 48c9 1d3d
00000290: e413 a83d 4b5f 0f3d 23d2 0cbd 08d9 aa3d
000002a0: 3c56 97bd 971b 4cbc d323 3cbd d476 3f3d
000002b0: 5ffb 5a3c a50a 9dbd a3a4 53bc 0de3 b43d
000002c0: 7b8a 9dbd 1291 2ebd 5e0b 473c 9a53 c2bc
000002d0: b86a 813d a229 003c b62e 5abd 4b08 47bb
000002e0: dace 9dbd e136 2a3d 7d4d 67bc 2192 2abd
000002f0: fe76 27bd 7527 943d 1a9c 633d 3ff7 48bd
00000300: cdcc 8fbd adce 6cbd 4873 633c 3e32 273d
00000310: f30d a73c 3512 10bc 09de adbc baf2 5eb8
00000320: 9745 08bb 922b 373c ee83 b23d c569 2abd
00000330: 5caa 613c 8c18 29bd cb1f a63d fd38 cfbb
00000340: 9066 fdbc f575 1ebb a8bb 803c 92fd 05bd
00000350: 3bfd 8b3d e5d1 c0bc f1f6 f83c b235 773c
00000360: 3ce6 203c 98d7 883c d60f b33d 9af5 ecbc
00000370: f0cb 99bd 6ad4 9a3d 1eb5 b6bc fce6 923c
00000380: 8fd6 183d 2a9e a3bd 7bd1 53bd 089f 5d3d
00000390: bba2 0e3c 2b5f 32bd bab2 73bc 853c d13d
000003a0: c25b ef3c a4e3 28bd c163 12bd fbfb 8abd
000003b0: bae3 3e3d ee93 96bc 4969 103d e58a e43c
000003c0: 685a a9bd f8ca ce3d 2b33 fbbc 108e 8abc
000003d0: e244 b9bb 092c 853c d6f3 e8bc 68d0 ecbb
000003e0: 860b de3c d274 37bd cc7f fd3b 264b 0abd
000003f0: 9dcf 6abd 5489 6ebd 7890 7a3d 3d92 783d

param_predictor.0.bias f4 [64]
0.016218258 0.081220336 -0.012093296 -0.04819612 -0.097249866 -0.05917065 0.04814981 0.0150396135
0.0061413427 -0.06573448 0.04471036 -0.06377477 -0.03784766 0.029848218 0.024464479 -0.045803253
0.0923248 -0.050953895 -0.05205035 -0.03160564 -0.05368811 0.04218595 -0.020736393 -0.09221829
-0.08350254 -0.013164741 0.07328812 0.088046685 0.07290563 -0.030187992 -0.031790726 0.08416153
-9.3869654e-05 0.060246967 -0.05813128 0.03430011 0.04746682 -0.016637849 0.08316118 0.02829532
-0.061448116 -0.040570732 0.017775016 0.02718051 0.06406008 0.039146595 -0.00974385 0.036866814
-0.049379107 -0.058870323 0.048946355 0.07408245 0.0950391 -0.022088962 0.028508795 0.062471982
-0.042658743 0.034881264 -0.058477025 0.035655648 0.013800086 -0.032853287 0.09381895 -0.08036222
00000000: 27dc 843c d956 a63d f622 46bc 4b69 45bd
00000010: f02a c7bd ec5c 72bd bc38 453d b668 763c
00000020: 513d c93b cd9f 86bd 3622 373d 599c 82bd
00000030: 2606 1bbd 4084 f43c bb69 c83c 319c 3bbd
00000040: c914 bd3d 08b5 50bd bf32 55bd ea74 01bd
00000050: 10e8 5bbd 2dcb 2c3d 5edf a9bc f1dc bcbd
00000060: 6103 abbd edb0 57bc 1518 963d d251 b43d
00000070: 8c4f 953d cf4c f7bc fe36 02bd e15c ac3d
00000080: e3db c4b8 86c5 763d 111b 6ebd 467e 0c3d
00000090: 916c 423d 194c 88bc 6950 aa3d 96cb e73c
000000a0: 05b1 7bbd 7f2d 26bd e99c 913c a9a9 de3c
000000b0: ee31 833d 2e58 203d aba4 1fbc a801 173d
000000c0: bf41 4abd 0222 71bd f97b 483d 8ab8 973d
000000d0: dca3 c23d e9f3 b4bc 478b e93c 9fe2 7f3d
000000e0: efba 2ebd a8df 0e3d 9b85 6fbd a80b 123d
000000f0: c219 623c 2b91 06bd 2624 c03d f394 a4bd

param_predictor.3.weight f4 [32, 64]
0.10437167 -0.025682582 -0.068182185 0.11193684 -0.09438874 0.10819839 -0.029485155 -0.07535191
0.038803816 -0.06614585 -0.06250738 -0.10748255 -0.09095653 0.013302719 -0.06998365 -0.08229525
0.033737548 -0.10285807 -0.09549971 0.015671276 -0.017527383 -0.030429102 0.11352901 0.015257337
-0.014609336 0.101288915 -0.024888406 -0.07569193 0.04606764 -0.06938052 0.06954901 0.011174023
0.068344325 0.054467175 0.025830075 -0.029595241 0.03258103 -0.056632478 0.089103885 -0.1007734
0.038951404 -0.033250537 -0.09845625 0.11169913 0.10983442 0.019244881 -0.00412786 -0.06917146
-0.09850663 0.115747504 -0.00727258 -0.086522914 0.099232726 -0.024599766 0.0047977734 0.1297333
0.09510039 0.12519269 -0.04264286 -0.027429134 0.008129507 -0.0335371 0.13772924 0.024372218
-0.058666103 0.1163295 0.06934426 0.07176279 -0.12668309 0.077002056 -0.018919146 0.122115515
0.10988934 -0.08752791 0.05969073 -0.023243215 -0.008846653 0.10313759 0.0408629 0.08702394
-0.0506957 0.004293248 0.111472666 -0.066521406 -0.054415576 0.087955125 -0.053678676 0.009197359
-0.051765867 0.090254545 0.0026796004 0.110951506 0.069252625 -0.042467833 0.0055835545 0.057086393
-0.016052365 0.09020838 -0.11723812 0.001242727 -0.07934378 0.03956497 0.14423293 0.08926361
-0.056372117 0.030264625 0.020223245 0.045607157 -0.031913392 0.10526186 -0.1238402 -0.12365404
0.035927057 0.02934281 -0.043131873 -0.025436806 0.037255116 0.12017497 0.111907735 -0.103726156
0.06463529 0.011938886 0.10031741 0.115890466 -0.1013571 -0.064501256 0.11769958 0.021527264
0.073761 0.08289116 -0.034859255 0.027789995 -0.057259396 -0.06848827 -0.025825648 -0.07234193
-0.061096534 -0.06564702 0.06109695 0.06079799 0.008155674 0.025797721 -0.011040186 0.06566174
-0.122150235 0.050318435 0.110684715 0.095989786 -0.11978756 -0.01667544 -0.05538623 0.1047748
-0.083483614 0.05758594 -0.04496113 -0.024814406 0.10953735 -0.055124402 0.04629831 -0.053363487
-0.106594786 0.050557278 -0.092603296 0.0012822598 0.019837752 0.008899304 -0.09197096 0.08795086
0.015834277 0.027392544 -0.052695498 -0.047601163 0.11119754 -0.10181332 0.04195705 0.019292653
-0.076949835 -0.081246994 -0.045252655 -0.06416325 -0.0798815 0.09347467 0.10816144 -0.0056364667
-0.049931496 0.030047288 -0.04471004 -0.1124244 -0.05049956 -0.044465862 -0.087825894 0.08601146
0.026155964 -0.04711871 -0.0651333 -0.12692937 0.1057578 -0.057571046 0.047496058 0.10303815
-0.0040224195 0.049493186 -0.032953754 -0.11545296 0.08687499 -0.117911726 -0.13635424 0.024609234
0.010293761 0.026680872 0.009063988 -0.0721963 0.11409578 0.07358135 -0.08705638 -0.03573841
0.032492526 0.09287922 0.046563238 -0.022924129 -0.060269475 -0.007866144 -0.00070776045 0.030223578
-0.10523032 0.08482801 0.055888817 0.049633935 0.024089098 -0.045288652 0.087026566 0.084342405
0.004257618 0.017395733 0.056211695 -0.017135648 -0.080476664 -0.011642635 0.018049434 0.10842964
0.10202296 -0.07431574 0.11792466 -0.079677284 -0.09856125 -0.056218088 0.07535961 -0.029932693
-0.09449424 -0.08003228 0.07574926 -0.002876012 -0.02322933 -0.11116022 0.06484992 0.050096378
00000000: d0c0 d53d 4764 d2bc 1aa3 8bbd 243f e53d
00000010: e24e c1bd 1e97 dd3d da8a f1bc 1a52 9abd
00000020: c0f0 1e3d 7a77 87bd df03 80bd d01f dcbd
00000030: 6b47 babd a6f3 593c 9753 8fbd 698a a8bd
00000040: 6230 0a3d 40a7 d2bd 5a95 c3bd 0c61 803c
00000050: 9695 8fbc 7446 f9bc e681 e83d e9f9 793c
00000060: ff5b 6fbc 9070 cf3d c5e2 cbbc 5f04 9bbd
00000070: 6cb1 3c3d 6017 8ebd b66f 8e3d 4013 373c
00000080: 1cf8 8b3d f918 5f3d 9899 d33c b871 f2bc
00000090: b073 053d 75f7 67bd 197c b63d 4962 cebd
000000a0: 828b 1f3d b731 08bd 6ea3 c9bd 83c2 e43d
000000b0: def0 e03d 71a7 9d3c 0043 87bb c4a9 8dbd
000000c0: d8bd c9bd 070d ed3d d34e eebb ed32 b1bd
000000d0: 873a cb3d 7385 c9bc a436 9d3b ced8 043e
000000e0: fec3 c23d 8332 003e 48aa 2ebd 10b3 e0bc
000000f0: a031 053c 335e 09bd e508 0d3e 3fa8 c73c
00000100: de4b 70bd 293e ee3d 5d04 8e3d 5ff8 923d
00000110: 36b9 01be 41b3 9d3d 53fc 9abc b317 fa3d
00000120: aa0d e13d d541 b3bd 447e 743d 8e68 bebc
00000130: 8df1 10bc cd39 d33d db5f 273d 9c39 b23d
00000140: 4ba6 4fbd 60ae 8c3b c84b e43d 603c 88bd
00000150: dee2 5ebd d121 b43d 2cde 5bbd 85b0 163c
00000160: 7208 54bd 60d7 b83d 3c9c 2f3b 8b3a e33d
00000170: 52d4 8d3d c0f2 2dbd 40f6 b63b 6cd3 693d
00000180: 4080 83bc 2cbf b83d 8a1a f0bd 00e3 a23a
00000190: fe7e a2bd e10e 223d ccb1 133e d7cf b63d
000001a0: 73e6 66bd 85ed f73c 38ab a53c 92ce 3a3d
000001b0: 9eb7 02bd 8893 d73d ee9f fdbd 543e fdbd
000001c0: 4028 133d 5560 f03c 0cab 30bd d960 d0bc
000001d0: d298 183d 4b1e f63d e22f e53d 616e d4bd
000001e0: 825f 843d 519b 433c 3773 cd3d fb57 ed3d
000001f0: 5094 cfbd 3c19 84bd 7a0c f13d f259 b03c
00000200: 0210 973d d7c2 a93d 94c8 0ebd d8a7 e33c
00000210: d488 6abd 9443 8cbd 4f90 d3bc 0128 94bd
00000220: 5c40 7abd f271 86bd cc40 7a3d 5007 793d
00000230: 609f 053c be55 d33c e5e1 34bc aa79 863d
00000240: e729 fabd b41a 4e3d abae e23d 4b96 c43d
00000250: 2e53 f5bd ef9a 88bc acdc 62bd 2c94 d63d
00000260: 75f9 aabd 3cdf 6b3d 2929 38bd 9547 cbbc
00000270: 1e55 e03d 20ca 61bd 4ca3 3d3d ac93 5abd
00000280: 5e4e dabd 2615 4f3d cca6 bdbd 8011 a83a
00000290: c882 a23c 63ce 113c 455b bcbd 951f b43d
000002a0: e3b6 813c 5466 e03c 3cd7 57bd 70f9 42bd
000002b0: 89bb e33d 8083 d0bd 28db 2b3d a00b 9e3c
000002c0: e097 9dbd d364 a6bd d95a 39bd 0668 83bd
000002d0: e998 a3bd a66f bf3d bf83 dd3d 1cb2 b8bb
000002e0: f884 4cbd bb25 f63c e021 37bd c43e e6bd
000002f0: a0d8 4ebd d621 36bd 10de b3bd c726 b03d
00000300: 0845 d63c 8cff 40bd 9c64 85bd c6f9 01be
00000310: 8c97 d83d 9ecf 6bbd 3a8b 423d aa05 d33d
00000320: 80ce 83bb 5eb9 4a3d 84fa 06bd 9a72 ecbd
00000330: 84eb b13d b47b f1bd 72a0 0bbe 4e99 c93c
00000340: 2aa7 283c d891 da3c 1f81 143c a7db 93bd
00000350: 0cab e93d d2b1 963d 9e4a b2bd 7062 12bd
00000360: e216 053d 7637 be3d 18b9 3e3d 62cb bbbc
00000370: 20dd 76bd 00e1 00bc 0089 39ba 7097 f73c
00000380: fe82 d7bd 4fba ad3d aceb 643d f44c 4b3d
00000390: 8056 c53c 9880 39bd fc3a b23d b6bb ac3d
000003a0: 7d83 8b3b 7f81 8e3c 3c3e 663d 0f60 8cbc
000003b0: f3d0 a4bd c0c0 3ebc 68dc 933c 5c10 de3d
000003c0: 6af1 d03d da32 98bd 7c82 f13d d82d a3bd
000003d0: 7bda c9bd f044 66bd 2456 9a3d 6835 f5bc
000003e0: 3286 c1bd f7e7 a3bd 6e22 9b3d 797b 3cbb
000003f0: 704b bebc f8a7 e3bd 09d0 843d dc31 4d3d

param_predictor.3.bias f4 [32]
0.11377471 -0.038398724 0.067655325 -0.04401529 -0.12645033 -0.09982834 0.01124424 -0.04985659
0.06095736 0.043673396 -0.08759828 -0.06136524 -0.079897776 -0.057255078 -0.055770148 0.036143474
-0.12232042 -0.06641104 0.007581974 -0.08970548 0.08207 -0.09556635 0.08037002 0.0037537133
0.021808749 -0.023013791 0.03871848 -0.10959665 -0.01317236 -0.023230072 -0.031717476 0.061085623
00000000: b702 e93d fb47 1dbd e08e 8a3d 6049 34bd
00000010: 327c 01be cd72 ccbd c339 383c 6c36 4cbd
00000020: 6dae 793d e0e2 323d ba66 b3bd 1e5a 7bbd
00000030: 72a1 a3bd 4d84 6abd 3d6f 64bd 2e0b 143d
00000040: 2183 fabd 8302 88bd 3572 f83b 82b7 b7bd
00000050: 5114 a83d 4ab8 c3bd 0999 a43d dc00 763b
00000060: 43a8 b23c 6b87 bcbc 4597 1e3d 3574 e0bd
00000070: e2d0 57bc fe4c bebc 2fea 01bd eb34 7a3d

param_predictor.5.weight f4 [8, 32]
0.16454893 0.1370486 -0.14930265 -0.11888108 -0.108441904 -0.10938182 -0.10923882 -0.12087227
-0.02862005 0.13757698 -0.09860116 0.053269695 -0.12625247 0.0016093572 0.11539597 0.06272364
-0.12497247 -0.008134016 0.15126565 0.0115101095 -0.060984325 -0.001659586 0.082527496 0.14733101
0.0847089 0.016856631 0.18826349 0.14222173 -0.06388531 0.15931924 0.10339302 -0.11610713
0.05222083 0.18979278 -0.07593931 -0.032069758 0.08197146 0.17248833 0.12282022 0.10083246
-0.14409238 0.19653843 0.012818795 0.17071429 -0.05200132 -0.13800947 -0.103745855 -0.087541334
-0.14511637 0.1309156 -0.0780306 0.08520888 0.021876039 -0.057522897 0.21082656 -0.12227548
0.17533895 0.024677746 0.03481444 0.008253569 -0.07069933 -0.09827713 -0.11300214 0.10112453
0.064054236 0.003478937 0.13750437 -0.1642766 0.11942232 -0.032403857 0.059595436 0.13543272
0.15765257 -0.07444534 0.15132834 0.06684413 -0.06493186 -0.03146483 0.09612887 0.14249633
-0.09693911 0.10846613 -0.048264857 0.11943161 -0.072688796 -0.13414608 0.16194674 0.10610676
0.114167735 0.1456163 -0.030705566 -0.11186591 0.09330246 -0.11769673 0.13006692 0.11627435
-0.014742057 -0.028884212 0.19250596 0.084394105 0.00023057304 -0.051874753 0.029953124 0.058937274
-0.073273316 0.12001849 -0.013950679 0.031239875 -0.03960081 -0.030384017 -0.077076726 -0.060926966
0.18144125 0.012875403 0.030838532 -0.04503588 0.09552549 0.01972089 -0.057563443 -0.11232257
-0.067914516 -0.10612853 0.15343791 0.166489 0.14066488 0.21336465 -0.12808838 -0.03902439
-0.062169433 -0.012975131 -0.08336453 -0.17130616 0.02615542 0.17124501 0.060675886 0.0874132
0.039099928 0.044137716 -0.09631278 0.12303022 -0.13267866 0.025273036 0.17869203 0.03583109
0.18248703 -0.053764433 -0.07378469 0.20890503 0.18577404 -0.09238267 0.07198057 0.1461907
-0.0024165292 -0.011039272 -0.0068891235 -0.0466603 0.11497169 -0.09120026 -0.09112983 -0.1263154
0.17322892 0.09209334 0.0396481 0.09606852 -0.16840835 0.0049094325 -0.01634895 0.13837849
-0.1687329 0.11819994 0.023406196 0.040898163 0.116237365 0.07499956 -0.07804106 -0.07667404
0.08726036 0.056347277 0.05458425 -0.040230934 0.009706743 -0.08229658 0.020758355 -0.02446641
-0.118172504 -0.03149154 -0.040686753 -0.14332782 0.10987708 0.0070048636 0.06606403 -0.04821524
-0.015758853 0.06807869 -0.18560904 0.0054367105 -0.008253409 -0.09228332 -0.1687362 0.037931044
-0.14392243 0.1402219 -0.01265773 -0.09210202 -0.059693146 0.07863642 0.089698546 0.0039746277
0.12920615 -0.07256688 0.03587657 0.13387991 -0.096223205 -0.081393875 -0.049398147 -0.0027519097
0.07684249 -0.038076885 -0.1389472 -0.058017872 0.11169738 -0.06437085 -0.027518833 0.00408549
-0.046279874 0.04960398 0.033298314 0.049322356 -0.018683113 0.051276885 0.15113778 -0.13201304
0.14914544 0.17633502 -0.07806164 0.07721819 -0.100361735 0.16156341 -0.07701072 0.02397927
-0.02732241 0.20729092 0.012899278 -0.025803592 -0.12425007 -0.09358138 0.07686168 0.072071664
0.07511952 0.10769601 -0.065782495 0.1347564 0.013501372 0.05064158 -0.061391693 -0.06647397
00000000: 847f 283e 7856 0c3e cbe2 18be ec77 f3bd
00000010: ca16 debd 9303 e0bd 9ab8 dfbd e18b f7bd
00000020: 9874 eabc fbe0 0c3e 68ef c9bd 5331 5a3d
00000030: 5448 01be 11f1 d23a b954 ec3d 4075 803d
00000040: 91f1 ffbd 8944 05bc 62e5 1a3e e694 3c3c
00000050: b3ca 79bd 7786 d9ba 2d04 a93d f1dd 163e
00000060: dc7b ad3d eb16 8a3c 25c8 403e 93a2 113e
00000070: 4dd6 82bd 9524 233e b8bf d33d 93c9 edbd
00000080: 82e5 553d 0a59 423e 1286 9bbd 945b 03bd
00000090: a7e0 a73d c8a0 303e 2b89 fb3d 4081 ce3d
000000a0: f48c 13be 5f41 493e ec05 523c bacf 2e3e
000000b0: 56ff 54bd 5b52 0dbe b578 d4bd df48 b3bd
000000c0: 6399 14be bd0e 063e 82ce 9fbd fe81 ae3d
000000d0: 6135 b33c 219d 6bbd ebe2 573e 916b fabd
000000e0: 0e8c 333e fc28 ca3c 9699 0e3d fa39 073c
000000f0: cfca 90bd 8545 c9bd aa6d e7bd 611a cf3d
00000100: de2e 833d e1fe 633b f2cd 0c3e 2038 28be
00000110: b093 f43d e8b9 04bd 581a 743d e0ae 0a3e
00000120: ad6f 213e cc76 98bd d1f5 1a3e 93e5 883d
00000130: fffa 84bd 44e1 00bd 37df c43d 8fea 113e
00000140: 0388 c6bd 7e23 de3d 5fb1 45bd 8f98 f43d
00000150: dddd 94bd 975d 09be 5ed5 253e 804e d93d
00000160: c6d0 e93d 701c 153e 3d8a fbbc f419 e5bd
00000170: 5c15 bf3d fc0a f1bd 4330 053e 3f21 ee3d
00000180: ab88 71bc 959e ecbc 4820 453e d1d6 ac3d
00000190: fbc5 7139 9f7a 54bd 4160 f53c 3668 713d
000001a0: 5210 96bd 41cc f53d 6491 64bc c4ea ff3c
000001b0: 7534 22bd e7e7 f8bc 67da 9dbd 8e8e 79bd
000001c0: bccb 393e 5bf3 523c 17a1 fc3c 8b77 38bd
000001d0: dea2 c33d b48d a13c a5c7 6bbd 6009 e6bd
000001e0: c416 8bbd ea59 d9bd d41e 1d3e 187c 2a3e
000001f0: 740a 103e 437c 5a3e 9a29 03be 0ad8 1fbd
00000200: 60a5 7ebd a595 54bc 06bb aabd e26a 2fbe
00000210: e443 d63c da5a 2f3e 4787 783d b105 b33d
00000220: 3f27 203d c0c9 343d a33f c5bd 45f7 fb3d
00000230: eadc 07be 6609 cf3c 0bfb 363e 9fc3 123d
00000240: e1dd 3a3e 1838 5cbd 6d1c 97bd 33eb 553e
00000250: 8d3b 3e3e 2033 bdbd 8d6a 933d 04b3 153e
00000260: a25e 1ebb 10de 34bc 28be e1bb df1e 3fbd
00000270: 4776 eb3d 34c7 babd 47a2 babd d358 01be
00000280: ec62 313e 6f9b bc3d 0c66 223d 92bf c43d
00000290: 3d73 2cbe 4edf a03b 3cee 85bc 17b3 0d3e
000002a0: 51c8 2cbe cf12 f23d 5abe bf3c d584 273d
000002b0: db0d ee3d 5f99 993d fed3 9fbd 4707 9dbd
000002c0: 8fb5 b23d 67cc 663d bc93 5f3d 31c9 24bd
000002d0: 0809 1f3c 1c8b a8bd 6d0d aa3c c86d c8bc
000002e0: 6d04 f2bd 46fd 00bd 27a7 26bd 87c4 12be
000002f0: 3c07 e13d 0e89 e53b 944c 873d 587d 45bd
00000300: b618 81bc d76c 8b3d 4c10 3ebe 6f26 b23b
00000310: 4e39 07bc 0aff bcbd 2fc9 2cbe 955d 1b3d
00000320: 6760 13be 5496 0f3e 5e62 4fbc fc9f bcbd
00000330: cd80 74bd 220c a13d dfb3 b73d 983d 823b
00000340: 9e4e 043e f29d 94bd 4ff3 123d d117 093e
00000350: ac10 c5bd d5b1 a6bd b655 4abd 6259 34bb
00000360: 985f 9d3d 82f6 1bbd 2d48 0ebe 26a4 6dbd
00000370: 99c1 e43d ddd4 83bd 2d6f e1bc 93df 853b
00000380: f78f 3dbd 8b2d 4b3d d063 083d 3d06 4a3d
00000390: 540d 99bc b607 523d ddc3 1a3e 6d2e 07be
000003a0: 95b9 183e 2b91 343e c8de 9fbd 9224 9e3d
000003b0: 748a cdbd e170 253e ccb7 9dbd 2d70 c43c
000003c0: 3fd3 dfbc 1244 543e 7e57 533c 0e62 d3bc
000003d0: d276 febd 98a7 bfbd a869 9d3d 4f9a 933d
000003e0: 43d8 993d ba8f dc3d f9b8 86bd 95fd 093e
000003f0: dc34 5d3c 8c6d 4f3d db75 7bbd 8123 88bd

param_predictor.5.bias f4 [8]
0.05956733 0.1643343 0.07252916 0.0013399349 0.13654937 0.07914629 -0.04541747 0.0038641798
00000000: dffc 733d 4047 283e 2b8a 943d c1a0 af3a
00000010: 99d3 0b3e 7317 a23d ab07 3abd 2e3e 7d3b
